GraphGymModule(
  (model): DilatedPositionalGNNModel(
    (encoder): FeatureEncoder(
      (node_encoder): BottleneckEncoder(
        (embedding_list): ModuleList(
          (0): Embedding(9, 256)
          (1): Embedding(9, 256)
        )
      )
    )
    (mp): GNNDilatedPositionalStage(
      (classic_layers): ModuleList(
        (0): GeneralLayer(
          (layer): LayerGINConv(
            (model): GINConv(nn=Sequential(
              (0): Linear(256, 256, bias=True)
              (1): ReLU()
              (2): Linear(256, 256, bias=True)
            ))
          )
          (post_layer): Sequential(
            (0): ReLU()
          )
        )
        (1): GeneralLayer(
          (layer): LayerGINConv(
            (model): GINConv(nn=Sequential(
              (0): Linear(256, 256, bias=True)
              (1): ReLU()
              (2): Linear(256, 256, bias=True)
            ))
          )
          (post_layer): Sequential(
            (0): ReLU()
          )
        )
      )
      (dilated_layers): ModuleList(
        (0): DilatedPositionalGeneralLayer(
          (layer): LayerGINConv(
            (model): GINConv(nn=Sequential(
              (0): Linear(256, 256, bias=True)
              (1): ReLU()
              (2): Linear(256, 256, bias=True)
            ))
          )
          (post_layer): Sequential(
            (0): ReLU()
          )
          (gem): GeM(p=3.0000, eps=1e-06)
          (pos): PositionalEncoding()
        )
        (1): DilatedPositionalGeneralLayer(
          (layer): LayerGINConv(
            (model): GINConv(nn=Sequential(
              (0): Linear(256, 256, bias=True)
              (1): ReLU()
              (2): Linear(256, 256, bias=True)
            ))
          )
          (post_layer): Sequential(
            (0): ReLU()
          )
          (gem): GeM(p=3.0000, eps=1e-06)
          (pos): PositionalEncoding()
        )
      )
      (act): ReLU()
    )
    (post_mp): BottleneckHead(
      (layer_post_mp): Linear(in_features=256, out_features=9, bias=False)
    )
  )
)
accelerator: cuda
benchmark: False
bn:
  eps: 1e-05
  mom: 0.1
cfg_dest: config.yaml
custom_metrics: []
dataset:
  cache_load: False
  cache_save: False
  dir: ./datasets
  edge_dim: 0
  edge_encoder: False
  edge_encoder_bn: False
  edge_encoder_name: Bond
  edge_message_ratio: 0.8
  edge_negative_sampling_ratio: 1.0
  edge_train_mode: all
  encoder: True
…
